model.npy (npy, 410448 bytes, 1 tensors)

array f8 [400, 100]
00000000: 0e88 4045 aa28 f83f 6a06 3e83 6987 ffbf
00000010: dc8f 3063 2d92 b63f fe8e 6aef 942c d13f
00000020: d9aa dd1a aa14 c43f 9f16 4bf2 f328 e0bf
00000030: a78f b3fc b037 e8bf afc9 13c9 5c8d e9bf
00000040: 19d5 80e4 b198 febf 9def 14c0 79a0 e93f
00000050: 0ac9 c077 e0ab d2bf 0661 ce2d b70e 0040
00000060: 1873 5393 6254 db3f 16b9 a704 410c f9bf
00000070: 3e22 1345 dedb b83f 5b0e a100 30f0 cabf
00000080: 8542 66a3 fc45 d8bf 800f 399f 51bd cfbf
00000090: eedb 4af2 2ace ccbf 1389 d9e6 5856 dabf
000000a0: 90be 7299 92b3 ffbf d386 4919 d0a5 d73f
000000b0: b6e2 5fd1 c982 f03f 23b7 b746 94c5 e23f
000000c0: 243b 9295 6de6 d43f 0e35 efcb 1ca9 fe3f
000000d0: 2a25 32c4 2963 e9bf 1b26 3b81 c767 f93f
000000e0: 10a7 fed4 c6e5 e7bf 8dfa 5b36 9e9d e5bf
000000f0: 0e94 aa9f 71b4 fb3f 6c92 9c89 6a81 fc3f
00000100: ba56 fe92 4cc6 ed3f 431a 6005 a304 d0bf
00000110: 32a8 9e3e 8c1c ab3f 3dc3 2a07 0afb d9bf
00000120: 00cf 4027 fd70 f03f 6f4e d49d dfa7 f53f
00000130: 3846 da17 7f0d fa3f e2db 9dc5 c24c 0d40
00000140: 9125 32d1 dfb7 e9bf 7dec e99c 4815 ed3f
00000150: 9c67 982b 3b6f d6bf 313e 741d c7ab e63f
00000160: 863f f38f 89ca f3bf 9ff8 dd8b 7a2f f73f
00000170: 28c5 eec2 3240 cfbf 26a5 50f7 6fd9 e5bf
00000180: 1824 e758 abe8 d7bf 113d 10c5 61d8 00c0
00000190: e735 bc4e bb5a d63f 9a2d bf72 ec29 f8bf
000001a0: ec38 0420 7b1d e43f 8ca2 2d3e dd56 e03f
000001b0: d03b 3430 1765 dc3f 034b 1657 36d8 c6bf
000001c0: ca78 598d 3866 fb3f a4b7 c74d 3442 f7bf
000001d0: a270 7005 2e1a fe3f 6074 9365 c788 cabf
000001e0: 1888 9ba7 5837 eebf 16be f2bf 3b1f f53f
000001f0: 59a3 e52e 66ba ef3f fd01 ee7b d669 08c0
00000200: 023e 2463 1fbb e23f de13 682d 10d4 df3f
00000210: 7767 d571 6d63 e73f 9be4 798f e969 01c0
00000220: bbb4 6cdf 469a ddbf b6db 7ddd 6cf5 e03f
00000230: 4955 f01f 7534 d4bf baf0 bd9b eed7 f7bf
00000240: 30ef 806e 170c d73f 4195 2cbe 2e01 ea3f
00000250: ce39 3cce 9b93 bb3f 262f 8b21 7a25 0040
00000260: db52 6ac4 5ec3 c7bf d177 6e97 ea24 f2bf
00000270: 2143 849e f51a e8bf d28c df81 37f2 c63f
00000280: 171c 8592 87a3 e5bf ba2a bc9b c506 f1bf
00000290: ff43 8207 67a2 bb3f 07c6 e5e2 399d ee3f
000002a0: 44a6 bb50 424f f7bf a28d 17eb 0361 e0bf
000002b0: 9806 4263 f480 cbbf 7e35 bd66 f441 cebf
000002c0: 0483 7311 4de8 f53f b8c9 61bb 3666 01c0
000002d0: d4d5 496c 33c1 d8bf 0b29 663f a249 aebf
000002e0: 3589 1ff5 b040 e33f aac1 3b7e d235 08c0
000002f0: abfd f2f1 8b66 dd3f 80e4 6a49 38be cfbf
00000300: 931b e79e 5c07 03c0 3f20 ae61 4a80 913f
00000310: 4123 135b c52b f73f 70e4 f728 d74d e7bf
00000320: 6158 62dd 0b9e debf 0699 710d ae16 e73f
00000330: e8d1 9e08 8593 cbbf 405a 2f92 e714 f13f
00000340: 837a 8537 b5d2 debf 6b8c e4d7 6145 f73f
00000350: 1ae2 bc94 4c0f ebbf 48d2 7c2c a025 f63f
00000360: 8c3f eab7 08fa cfbf ab3d 6da7 d42c f5bf
00000370: da37 178e d24e eebf bdce 68fa 1079 d6bf
00000380: 191c 51e9 ab71 f1bf 7b98 333c fceb e5bf
00000390: 91a7 6954 2100 c8bf a573 ce91 fe37 0140
000003a0: 0b01 700b 2cf2 dcbf 13f6 0a21 05ee c0bf
000003b0: 8bc2 fddc 8b18 dabf ca28 c533 5094 e63f
000003c0: 8491 073d 55ae 8e3f 7dc8 0ad3 249c ee3f
000003d0: 70bf 3edc 3d9d c33f 7517 b722 658d f33f
000003e0: 9389 2d00 dd33 babf 6336 846a 58d4 d73f
000003f0: e2c5 a907 3362 09c0 0b13 8a49 cdd6 d8bf
00000400: 08fb 2703 a33f f23f be1f c003 0a97 d83f
00000410: f2e5 4cb1 96af eabf 6245 9fc7 909a bdbf
00000420: 2814 09a5 984b d3bf 2656 20bc ea81 c5bf
00000430: 7cfc 7c35 6259 f03f 0243 4f51 3d00 e93f
00000440: 44e5 a074 f016 04c0 4066 4ff9 0627 f03f
00000450: a0f6 e93e 9c66 f6bf a284 468f 40f8 e2bf
00000460: f099 51d0 07a0 00c0 71bc cb44 2f1f e73f
00000470: 4002 7749 7b1e c9bf 6ad0 1143 633e e43f
00000480: a5bf 8168 0a21 d0bf 82c8 4a02 4e52 b2bf
00000490: 5ddb cc66 425c f13f b352 b69f 51a3 bbbf
000004a0: bc98 5e09 f071 94bf e2d6 f601 1ce0 e2bf
000004b0: d1a0 cdfa 1749 b93f 4bed c644 853d e4bf
000004c0: e310 5f73 99fc f33f 9a87 faf6 82b4 ed3f
000004d0: 3935 d8af 7ff4 c6bf 8a3e 459c f7ae e6bf
000004e0: f49b b393 fdea 0140 4059 9b5e 080f ebbf
000004f0: 8a44 e077 cd81 fb3f ea99 10b6 168c e03f
00000500: 264f 0320 a365 f43f 92f7 f7d0 0246 dcbf
00000510: d078 d4df 5199 edbf 191b 07fa e743 e13f
00000520: 42dd 0968 90f7 febf 25f1 598b c8c7 fc3f
00000530: b096 e51e 8093 f73f ae48 60d2 8e19 bb3f
00000540: a74a d072 9d1e d9bf be36 8750 2add e1bf
00000550: df68 7530 15d9 d03f dfd9 1aae 8ff9 edbf
00000560: 2bcc 81c3 03e0 d83f 767e 533a dad7 fbbf
00000570: f2d1 ebff dacc df3f 54e6 a72e f231 0340
00000580: 3587 0988 5009 ae3f 0f6d 36d6 0dcd 963f
00000590: 974d 1986 b66e f43f 2936 acef 289c f93f
000005a0: 55e7 d349 6b0a 98bf 609e 0181 50a9 e1bf
000005b0: 7b44 c657 f492 ef3f f281 4650 8c3d e23f
000005c0: 66f3 9edf 62b2 ea3f 8ab5 a304 0200 e43f
000005d0: a4f7 5a57 7436 d5bf 2f8d e1c0 b10c e4bf
000005e0: 4b25 fe7b 43d9 f3bf 14f1 ec5b cfa8 fabf
000005f0: 5c7b 8996 d830 db3f d12a d596 abe9 f0bf
00000600: 8240 48f6 e88b d0bf c715 2854 6350 dfbf
00000610: 3102 ff18 eb68 d8bf a2fe d753 d73e e83f
00000620: b768 157a ba4e eabf 5ca4 46d4 0de8 d83f
00000630: 6474 f319 a5ee ed3f ee5a 3bd0 2c32 00c0
00000640: c6d2 cd9d e390 e13f bfb0 7886 036b dc3f
00000650: 2442 e0d7 8a4c c7bf d818 3598 712e e7bf
00000660: cd4f 1f5d 22f7 e3bf dcc6 10bd 8319 ee3f
00000670: c21c 953b 5173 eebf 6f47 56db 796b c4bf
00000680: 617e 53fb c491 d03f 56e9 7b43 e8eb bdbf
00000690: 0105 e79d a3d4 c5bf 3e0a 974e cf08 d33f
000006a0: 1813 3721 8e16 fd3f 7b52 5d9b d52b c53f
000006b0: 32e5 d74e eec8 ef3f 7a82 c36b 9938 fd3f
000006c0: 5103 ba95 932f d83f ecbc 9614 a9ba e7bf
000006d0: a004 9aa1 d30f e8bf 43a7 fd17 2a43 dcbf
000006e0: f521 730b 611e f53f f124 219f 999a f83f
000006f0: 8213 93c2 c18d e7bf b321 dd7d 42f6 e03f
00000700: a932 f7d9 ec1c f63f 2e60 b6ff 688d a63f
00000710: 9441 308c 9401 dbbf edfb 2815 0e26 f2bf
00000720: 1a2f 8fc1 8afc bf3f ff44 7fb3 f667 04c0
00000730: 308b b7d9 3db3 eb3f 6fc2 1f93 93bb d3bf
00000740: bb41 26d8 ccf8 af3f d426 77f6 b1e4 acbf
00000750: cf49 cf7e 1d1e eebf 1356 c218 8f72 f0bf
00000760: 318d 1f14 b1ff dbbf a160 fc3c 4152 b83f
00000770: 18f5 469a 8955 a1bf a1c9 5577 b294 e93f
00000780: b9f8 cb0a 1da8 df3f 19fa 8304 78b5 d63f
00000790: a477 68da 54ed f53f 91c6 625f a49d f83f
000007a0: 2201 363b 7964 d33f b6f5 367f 1b99 f2bf
000007b0: 58e2 cbbf c535 d8bf 4911 36bd a44a ec3f
000007c0: 1e8d a506 d70d e6bf ba76 00e0 62d7 d3bf
000007d0: a243 83ea a7f8 f3bf 96e1 c064 d20b eebf
000007e0: 7c6d ebdc b4fb d7bf b7b9 4413 e0be e9bf
000007f0: 8ca5 70d1 4a9f efbf 575c f062 f8bb cb3f
1.509928007617876 -1.970559609093835 0.08816798850654045 0.26834605579846016 0.1568806296521277 -0.5049991352359092 -0.7567982612204006 -0.7985061576167051
-1.9122790265949503 0.8008393050763406 -0.291740529009204 2.007185323582351 0.42702545535375824 -1.5654916936724184 0.0971049231185441 -0.21045494108885773
-0.3792716594407824 -0.24796505236201583 -0.22504174071011057 -0.41152021926804244 -1.9813409799643615 0.3694954153962559 1.031930749768589 0.5866185551837798
0.32656421286167103 1.9162872282207135 -0.7933548767042897 1.5878367469871424 -0.7467989120534373 -0.6754904805855674 1.7315536725011529 1.7815957427457318
0.9304564352957734 -0.2502830078596256 0.05295217766190809 -0.40594721507936865 1.0275851758314616 1.3534847417076 1.6282950336211695 3.6624808729934424
-0.8036955915314811 0.9088481011125534 -0.35053900964123286 0.7084689688944704 -1.2369475958875866 1.4490914786870588 -0.24414667623708763 -0.6827926473971828
-0.37357600862429896 -2.105655231054364 0.3492878216646588 -1.5102352602287739 0.6285987496683254 0.5106035437030001 0.4436700793020778 -0.1784732747297185
1.7124562760796374 -1.453663162068076 1.8813915455312231 -0.20729916057362896 -0.9442561410508032 1.3201253412224836 0.9915038028676505 -3.051678627205773
0.5853421150549709 0.4973183101104136 0.7308871482193656 -2.1767150124620236 -0.4625413114434413 0.5299591375359032 -0.3157017528440816 -1.4902177890462966
0.3601130084168629 0.8126443590487399 0.10772107873001532 2.0182993527031554 -0.18564972487060669 -1.1340127864163956 -0.7532909484890277 0.17926687089411658
-0.6762121068685499 -1.064153297748517 0.10794681485482725 0.9566926414101439 -1.456850352633766 -0.5118426887169572 -0.214872883287218 -0.23638777748639578
1.369214122933216 -2.174909080430748 -0.38679204535523337 -0.05915553115763047 0.6016468799173597 -3.026280389975189 0.4593839514527313 -0.24799254975167528
-2.3785946287420727 0.017090952121663113 1.4481862599952395 -0.7282520103609738 -0.47839638347193697 0.7215185415814467 -0.21543944283406735 1.0676036558485436
-0.48161058828365116 1.454439013796924 -0.8456175713573117 1.3841859567447887 -0.24981793384767703 -1.3234449901682221 -0.9471218848427683 -0.351139301815447
-1.0902518381060473 -0.6850567985354837 -0.18750397321428783 2.1523410216454573 -0.45228100888199724 -0.1322637950269586 -0.4077481897466348 0.7056046496520818
0.014980951237654201 0.9565605279842796 0.1532361340919084 1.222020278555161 -0.10235387091009888 0.37233553316113993 -3.1729488943753816 -0.38811046773507546
1.1405363200462393 0.38421869627245175 -0.8339341605089301 -0.1156397330626269 -0.3014890300440265 -0.16802725015502168 1.0218221749671832 0.7812792385176126
-2.5112008201219016 1.0095281351735963 -1.4000513513159731 -0.592804221949468 -2.078139903536105 0.7225567191761809 -0.19624272429611445 0.6326156911805019
-0.2520166416716115 -0.07156837039909372 1.0850242629655533 -0.10796079777930849 -0.019965887615079878 -0.5898571050990677 0.098771570903071 -0.632509836511795
1.2491697794621863 0.9282851051141165 -0.1793365105262781 -0.708858304229538 2.239741472166765 -0.8455850456037197 1.7191900904329338 0.5171006732896875
1.2748137712960186 -0.4417731323918527 -0.9249657985381194 0.5395393260340341 -1.9354404510502978 1.7987752383624607 1.4735108572871631 0.10585873256812547
-0.3924935933329529 -0.5582477162185666 0.26324968082702854 -0.9367140198217462 0.38867277233584 -1.7401983526578113 0.4968783854704092 2.399387707232373
0.058664814573388936 0.022266594123363122 1.2770295370326943 1.6006249773230457 -0.023477245694244548 -0.5519182700781577 0.9866887773843155 0.5700131957892707
0.8342756621928913 0.6250009623160377 -0.33144863634867705 -0.6265496031959737 -1.2405428737132123 -1.666213378032869 0.42485632611162827 -1.057048405828642
-0.2585394291973061 -0.48928149431625595 -0.3814037078955464 0.757671035535129 -0.8221104034849053 0.38916345338890834 0.935381460843598 -2.0244995372880714
0.5489366609677624 0.4440316022107815 -0.18202338734455836 -0.7244194004822715 -0.6239177531047005 0.9406145756422251 -0.9515768207283133 -0.15952990732017322
0.25889706176346833 -0.11688090941962534 -0.170551731205741 0.2974127070885152 1.8180066392389502 0.16540021978530092 0.993277696600819 1.8263181886215123
0.37790383931865273 -0.7415357019544024 -0.7519319683343788 -0.44159939139227705 1.3199167678122852 1.5377441612238807 -0.7360543060573124 0.5300610025670295
1.3820618166238694 0.044047623839276503 -0.4219714516666724 -1.1342907740179229 0.12494723535126831 -2.550763513871629 0.865630078533604 -0.3083237587698368
0.062445069680623765 -0.0564323056565407 -0.9411761738540977 -1.0279684989121776 -0.43748118367348626 0.09500510920440998 -0.033855724413550614 0.79940150554312
0.49463583044406395 0.3548259777161618 1.3704422504010632 1.5384868360528439 0.30300741941757015 -1.1623797387431813 -0.378282010365671 0.8841117568522715
-0.6891894464319284 -0.3100211322324459 -1.248207012238915 -0.938943096908633 -0.3747379453104356 -0.8045502067887388 -0.9881948557496556 0.21667389708520332
